…
      image_directory = os.path.join(DATADIR, folder, "images")
      char_name = os.listdir(image_directory)[0]
      char_directory = os.path.join(image_directory, char_name)
      data_size = len(os.listdir(char_directory))
      data_size *= NUM_CHARACTERS
      return data_size // batch_size
#+END_SRC

#+RESULTS:

#+BEGIN_SRC jupyter :results output
model.summary()
#+END_SRC

#+RESULTS:
#+begin_example
_________________________________________________________________
Layer (type)                 Output Shape              Param #   
=================================================================
input_1 (InputLayer)         (None, 584, 480, 3)       0         
_________________________________________________________________
block1_conv1 (Conv2D)        (None, 584, 480, 64)      1792      
_________________________________________________________________
block1_conv2 (Conv2D)        (None, 584, 480, 64)      36928     
_________________________________________________________________
block1_pool (MaxPooling2D)   (None, 292, 240, 64)      0         
_________________________________________________________________
block2_conv1 (Conv2D)        (None, 292, 240, 128)     73856     
_________________________________________________________________
block2_conv2 (Conv2D)        (None, 292, 240, 128)     147584    
_________________________________________________________________
block2_pool (MaxPooling2D)   (None, 146, 120, 128)     0         
_________________________________________________________________
block3_conv1 (Conv2D)        (None, 146, 120, 256)     295168    
_________________________________________________________________
block3_conv2 (Conv2D)        (None, 146, 120, 256)     590080    
_________________________________________________________________
block3_conv3 (Conv2D)        (None, 146, 120, 256)     590080    
_________________________________________________________________
block3_pool (MaxPooling2D)   (None, 73, 60, 256)       0         
_________________________________________________________________
block4_conv1 (Conv2D)        (None, 73, 60, 512)       1180160   
_________________________________________________________________
block4_conv2 (Conv2D)        (None, 73, 60, 512)       2359808   
_________________________________________________________________
block4_conv3 (Conv2D)        (None, 73, 60, 512)       2359808   
_________________________________________________________________
block4_pool (MaxPooling2D)   (None, 36, 30, 512)       0         
_________________________________________________________________
block5_conv1 (Conv2D)        (None, 36, 30, 512)       2359808   
_________________________________________________________________
block5_conv2 (Conv2D)        (None, 36, 30, 512)       2359808   
_________________________________________________________________
block5_conv3 (Conv2D)        (None, 36, 30, 512)       2359808   
_________________________________________________________________
block5_pool (MaxPooling2D)   (None, 18, 15, 512)       0         
_________________________________________________________________
flatten_1 (Flatten)          (None, 138240)            0         
_________________________________________________________________
predictions (Dense)          (None, 5)                 691205    
=================================================================
Total params: 15,405,893
Trainable params: 691,205
Non-trainable params: 14,714,688
_________________________________________________________________
#+end_example

I found this code from the Deep Lizard keras tutorial, and it is ugly as sin.  Oh well, kinda helpful to me now.

#+BEGIN_SRC jupyter
  def plot_images(images, figsize=(12, 6), rows=1, interp=False, titles=None):
…
